models/chl_nn_minispect.tflite (tflite, 755120 bytes, 4 tensors)

DNN-Minispect/hidden_0/MatMul f4 [288, 576]
000000 7d 0e 73 ba ec cc b7 bd 55 27 8c 3a c4 1f d2 3c
       -0.0009271873 -0.089746326 0.0010692874 0.025649913
000010 e8 03 61 bc df be 18 be 97 00 92 bd c6 16 52 bd
       -0.0137338415 -0.14916562 -0.07129019 -0.05129125
000020 eb 88 75 bd c6 62 ed 3d 93 9f 0a 3e b0 51 b1 3c
       -0.05994503 0.11591105 0.13537435 0.021645397
000030 fd 3e 25 bd 8e b2 48 3d 09 77 70 bd ba c4 c5 3c
       -0.040343273 0.048998408 -0.05870727 0.024141658
000040 9c d8 a8 bd ad 59 4f 3c 13 27 a1 3d 72 a0 33 bd
       -0.0824444 0.012655658 0.07868781 -0.043854184
000050 43 11 b9 3c e0 57 18 3d d9 08 a2 3d fd ff b0 bd
       0.022591239 0.03719318 0.07911844 -0.08642576
000060 b0 f6 0d 3c cd 1e 39 bb 65 8a f6 bc 72 74 28 bd
       0.008664772 -0.0028247118 -0.030095289 -0.041126676
000070 b9 55 be bc e3 5a d6 3d 5a bc 38 bb a2 2e ae 3c
       -0.023234235 0.10466554 -0.0028188438 0.02126247
000080 f6 d6 39 bc 25 7b 0b bd cf 5d 23 3d 2c 0e a5 3d
       -0.011342755 -0.034052987 0.039884385 0.08059344
000090 bd 9f c7 3d df 47 25 bc 14 4f 54 3d 64 ef 3f 3d
       0.097472645 -0.010087936 0.051833227 0.04685916
0000a0 f4 5f 9e bd 7f ee 1c bc 2a 43 4a 3c 8e 8c 88 3c
       -0.07733145 -0.009578346 0.012345115 0.016668584
0000b0 69 61 54 bc 8e 18 6c 3d 76 59 86 bd a2 62 1d 3e
       -0.0129626775 0.057640605 -0.06560032 0.15369657
0000c0 98 66 e6 bb d6 3f 56 bd 5a 53 1b 3d f1 66 88 bd
       -0.007031273 -0.052306972 0.037921287 -0.066602595
0000d0 9a 49 a3 bc e2 0d 93 b8 0e 41 0f bc 5c 52 d3 bd
       -0.019932557 -7.012092e-05 -0.008743538 -0.10318443
0000e0 8b 83 53 bd aa 74 6b 3d 89 8a 71 bd dc 93 fd 3c
       -0.05163912 0.057484306 -0.058970008 0.030954294
0000f0 66 88 f1 3d ff d2 09 3e f7 f8 05 bd 21 0e 96 bd
       0.11793594 0.13459395 -0.032708135 -0.073269136
000100 da bd e9 bc 6f 45 a4 3d de 2a 29 3d 6f 39 95 3c
       -0.028532911 0.08021056 0.041300647 0.018215863
000110 38 dd 7a bc 27 ae 5f bc 4b 81 92 bd 59 d5 11 bd
       -0.015311532 -0.013652361 -0.07153567 -0.035603855
000120 03 48 78 bd 91 c3 5b bd 8e 94 cc bd 59 cc 6c bd
       -0.06061555 -0.053653304 -0.09989272 -0.05781207
000130 12 be 96 bd 8c e6 ce bd 82 50 63 bd 0b be 44 3d
       -0.07360472 -0.10102567 -0.0554967 0.0480328
000140 67 d9 fa bc de 7a 58 3c 28 8d 01 3d d4 4a c9 bd
       -0.030621244 0.013212888 0.031628758 -0.098287255
000150 4f 28 01 be 91 1b 30 3c f4 fc df bd 86 14 8a ba
       -0.12613033 0.01074876 -0.10936919 -0.0010534681
000160 93 3f 36 bd 4d 65 71 bc ca 37 a6 bd 37 eb 97 bc
       -0.044494223 -0.014733625 -0.0811611 -0.018544776
000170 57 ec 93 3c 00 18 79 3c 98 4a 18 3d 0a 73 0d bc
       0.018057032 0.015203476 0.037180513 -0.0086333845
000180 86 b9 a6 bc 8f 40 a5 3b 2b 13 0f bb e5 dd d4 bb
       -0.020352136 0.0050430964 -0.0021831493 -0.0064961785
000190 fa 20 8d 3c 2f fb 6e bd d8 f3 98 3c 19 68 92 bc
       0.017227639 -0.058345016 0.018670961 -0.017871903
0001a0 39 1c bd bc 64 fc 60 bd e4 7d d5 bc 33 12 89 bd
       -0.023084747 -0.0549282 -0.026061006 -0.06692924
0001b0 49 e4 58 bd 43 bb 65 bd 1e 96 76 bb 3b 09 75 bc
       -0.052952085 -0.05608679 -0.0037626098 -0.014955814
0001c0 83 dd 98 3c 5a d5 58 bd 62 20 fe bc 42 5a 90 3c
       0.018660313 -0.052937843 -0.0310213 0.017621163
0001d0 64 c2 86 3c e3 b7 a4 bd 9f 45 4d bc fb d3 30 bb
       0.016450115 -0.08042886 -0.012528806 -0.002698182
0001e0 74 9a 71 bc 08 dc 18 bd 48 77 a6 3d 62 45 e9 bc
       -0.014746297 -0.037319213 0.0812822 -0.028475467
0001f0 f4 81 b7 bd 99 03 0d 3c 2b 2b a2 3d e9 f4 8b bd
       -0.089603335 0.008606815 0.0791839 -0.06833822
000200 cb ad 8d 3d 4f 4e 41 bc 3d b9 4b bd 70 30 db bd
       0.06917914 -0.011798455 -0.049737204 -0.10702598
000210 b1 8a 19 be b4 e7 b6 bc b9 6c b0 bd 5a 87 c1 3d
       -0.14994313 -0.022327282 -0.08614487 0.094496444
000220 84 14 c4 3c 28 b1 1c 3d f0 79 12 3b dc 7c 2b 3d
       0.023935564 0.038254887 0.0022350512 0.041867122
000230 59 4c 7e 3c 96 dd aa bc 09 d4 21 be 50 66 2c be
       0.015521132 -0.020857614 -0.15803541 -0.16835904
000240 47 da cc 3d b6 e7 87 3d 2b 82 75 3c 87 d2 34 3d
       0.100025706 0.06635992 0.014984648 0.044146087
000250 f6 36 0a 3d f7 26 35 3d c3 ca 03 bb 53 65 06 bd
       0.03374382 0.044226613 -0.002010987 -0.032811474
000260 89 ce e9 3b 63 2f a9 3b 43 33 37 bd eb 0f e5 bd
       0.0071352166 0.0051631196 -0.04472662 -0.11184677
000270 e7 4f 49 bd d3 9e da 3b d5 75 07 bd 9f 3c a9 bc
       -0.049148466 0.0066717654 -0.033071358 -0.02065879
000280 88 d6 26 ba 1e f4 52 3c 20 31 2e 3d 08 5b 09 3d
       -0.0006364365 0.012875585 0.042527318 0.03353408
000290 e4 f7 89 bd bc b3 8a bc e8 46 4b bd 4b 0d 81 3d
       -0.067367345 -0.016931407 -0.04962817 0.063013636
0002a0 3f 89 3b 3d 9d 2f a4 3c 59 4b 64 3d 91 1d 97 bd
       0.045785185 0.020042235 0.05573592 -0.07378686
0002b0 0f d3 5e 3a 38 bb 3c bd a9 37 04 be e1 47 6c 3c
       0.0008500078 -0.046076983 -0.12911858 0.014421434
0002c0 12 ce 26 be a8 62 c7 bc b4 bd ac 3d 44 dd 35 bc
       -0.16289547 -0.024339035 0.084346205 -0.011100117
0002d0 eb be ec bd 01 f0 06 bd 92 b2 12 bd c4 88 1c be
       -0.11559852 -0.03294373 -0.03581483 -0.15286547
0002e0 48 8c 99 3b 97 2b a1 3c 7a 02 27 3d 92 33 58 bd
       0.0046859123 0.019674106 0.040773846 -0.052783556
0002f0 59 91 24 bd 39 89 b9 3d ab 5e f9 3c c8 ac f6 3a
       -0.040177677 0.09059376 0.030440649 0.0018819803
000300 bb 9e b2 3c 59 84 cd bc bd 9d 8e bc e0 81 bc 3d
       0.021804204 -0.025087522 -0.0174092 0.09204459
000310 41 5c 5b 3d 4c 39 df bc 76 f9 81 bd 04 41 6b bd
       0.053554777 -0.027249001 -0.06346409 -0.05743505
000320 6b 67 db bb 5a 76 07 bb f6 f4 5a bc 8e fa ad 3b
       -0.006695678 -0.0020669908 -0.013364067 0.0053094095
000330 1b 42 02 3e 06 11 2b bc 7a 46 00 3d 69 ff d3 3d
       0.1272053 -0.01044107 0.03131721 0.1035145
000340 08 18 bf bc ab 77 5f 3d c9 9e d9 bd 11 b8 b8 bc
       -0.023326889 0.054557484 -0.10625989 -0.022548707
000350 c8 f6 5c bd 39 a2 e6 3b 6d ff bb bd 4b 93 90 3c
       -0.053946286 0.0070383814 -0.09179578 0.01764836
000360 67 c9 8a bc ec 14 08 3b e1 b4 95 bc 1c 4c de bd
       -0.01694174 0.0020764424 -0.018274726 -0.108543605
000370 08 9a d9 3c ab ee b7 bd e3 02 32 3d 7d 58 9d 3c
       0.026562706 -0.08981069 0.043459784 0.019207234
000380 be 02 98 bd 7d 18 1d 3e 5c 30 b2 bd 1b 78 8d bd
       -0.07422398 0.15341373 -0.0870063 -0.06907674
000390 70 3b 77 3b 69 94 5e bd 9d 68 f9 bc aa 0a ee 3d
       0.0037724636 -0.054340754 -0.030445391 0.11623128
0003a0 a8 cd a7 3d 6f 67 33 3c 68 a8 16 bc ee ff 2c bd
       0.08193523 0.010949953 -0.009195425 -0.04223626
0003b0 0d 7b 58 bb 21 c5 8d 3c 2f 08 c3 3a 52 c9 b2 bd
       -0.0033032328 0.017305912 0.0014879758 -0.08729805
0003c0 47 5e ec 3b 3f c8 66 bd ed 50 39 3d 77 73 b9 3d
       0.007213387 -0.056343313 0.045243192 0.09055226
0003d0 db e1 33 3d 6d 9a 8a 3c 17 95 a3 bd 6d 31 26 3c
       0.043916564 0.01691934 -0.07987421 0.01014362
0003e0 fe c8 a4 bd c9 13 0d 3b 76 b4 5c bd 99 76 c9 bc
       -0.08046149 0.0021526685 -0.05388304 -0.024592685
0003f0 bc 3a 17 bc a8 73 60 3d 9f a9 d5 bc b5 fe bf bc
       -0.009230312 0.0547978 -0.026081858 -0.023436883

DNN-Minispect/hidden_1/MatMul f4 [72, 288]
000000 d1 28 a6 3d 2b 1e cf 3d af db 4b 3e c0 6f 37 be
       0.08113254 0.10113176 0.19908021 -0.17913723
000010 3a 2b 96 bd 6b 4a 2f 3a 65 83 c6 3d 6a 28 10 be
       -0.073324636 0.00066868094 0.0969303 -0.14077917
000020 96 4c 35 3d a1 65 8a 3c c0 9c 24 3e 56 a9 fe bc
       0.04426249 0.016894164 0.1607542 -0.031086605
000030 f5 10 ce 3d 4f 70 fe 3c 71 ab 1d 3d 0d 31 92 bd
       0.10061828 0.031059412 0.038493577 -0.07138262
000040 1b ef 31 3d da 6c 63 3d 39 24 a5 bd 4b 2f 09 3e
       0.04344092 0.05552373 -0.080635495 0.13396947
000050 09 12 0a be b0 bf 0e be 8b 95 60 bd b0 72 b4 3d
       -0.13483442 -0.1394031 -0.054830115 0.088109374
000060 72 4d 1d 3e 21 7f f5 3d c4 94 29 bd bf a8 52 3d
       0.15361574 0.119871385 -0.04140164 0.05143046
000070 bf 4a d4 3d c9 b1 be bd 76 65 80 bd fd 10 0c be
       0.10365819 -0.093112536 -0.06269352 -0.13678356
000080 87 0c fc bd 47 16 b1 bd d2 74 27 bd 67 8d 97 be
       -0.12307077 -0.08646827 -0.040882893 -0.2960007
000090 ec d0 3c bd 53 38 9b 3d b8 34 93 bd 31 d6 d2 3d
       -0.04609768 0.07579102 -0.0718779 0.1029476
0000a0 95 16 91 3e fd fe 81 bd 75 65 b4 bb 3b 57 27 3d
       0.2833754 -0.06347463 -0.0055052587 0.040854674
0000b0 24 09 83 3d f7 9c ee bc 41 c5 52 3d e6 74 53 be
       0.06398228 -0.029127581 0.051457647 -0.20650062
0000c0 c1 7a dd 3c e1 2a be bd 48 90 cf bc dc a4 65 3e
       0.027036073 -0.09285522 -0.025337353 0.2242617
0000d0 57 da 0c bc ab bc de bd 72 c7 29 3e d0 a8 94 bd
       -0.008596978 -0.10875829 0.16579989 -0.07258761
0000e0 cf af 5c bc e7 32 49 3e 87 36 27 3c a4 ae 1a be
       -0.01346965 0.19648324 0.010205871 -0.15105683
0000f0 ee cc 3e be 14 7f 7d 3e 82 d7 5e b6 ac 3e 51 bd
       -0.18632862 0.24755508 -3.320602e-06 -0.05108516
000100 f5 69 3b 3e 20 1b 82 3d 8e 06 4c bc a5 ae 2f bc
       0.18302138 0.0635283 -0.012452735 -0.010722791
000110 1e 92 9c bd b4 1e 5c bd b8 5b 35 be de 86 e3 bc
       -0.07645057 -0.05374022 -0.17710769 -0.02777427
000120 38 3b 4a 3e 70 e0 5c be 60 c5 ca 39 ed 3d 4e 3e
       0.19749153 -0.21569991 0.00038675498 0.2014081
000130 85 49 c0 bd 3e 7d c6 3d a2 e0 4e bd d0 36 66 bd
       -0.09389023 0.09691857 -0.050507195 -0.056204617
000140 96 79 16 3e 2b 8a ae bc 92 5c 8b 3c af b7 b0 3d
       0.14694819 -0.021306118 0.017011914 0.08628785
000150 26 1e e8 3d 87 08 e9 3d ba 62 06 3d fd 82 3b 3e
       0.11333875 0.113785796 0.032808997 0.18311687
000160 fe b0 e8 bd 8e 05 d3 3c 86 a4 87 bd 1b fe 18 bc
       -0.113618836 0.025759485 -0.06623177 -0.009337927
000170 fb cc 61 bc 87 1f 91 bc 3e e4 4f 3d d1 f0 ef 3c
       -0.013781781 -0.017715229 0.050754778 0.029289635
000180 a0 d8 55 be df 83 5d bd 0a 39 ba 3d 01 3c 9f bc
       -0.20883417 -0.05408084 0.090929106 -0.019437792
000190 25 cf e6 3c 56 a0 b6 bd 63 3a 37 be 58 9a 3a be
       0.028174946 -0.089173004 -0.17893367 -0.1822294
0001a0 41 3c d2 bc 97 a3 1a be c9 06 da bc ff c3 3e 3e
       -0.025663497 -0.15101467 -0.026614564 0.18629454
0001b0 76 12 91 bd 03 eb 91 3d 93 f6 cb bc d1 62 52 3d
       -0.07083599 0.07124903 -0.02489785 0.05136377
0001c0 02 ea 34 bd 51 34 53 3d c8 34 2c be 48 1c b6 bd
       -0.04416848 0.051563565 -0.1681701 -0.08892113
0001d0 0d 22 d1 3d a0 3e 00 be 37 b4 34 3e 19 5b ed 3d
       0.10211573 -0.1252389 0.17646872 0.11589641
0001e0 1b 71 1a 3e ab bb 3e 3d bc b4 83 3d 79 4b a3 bd
       0.15082209 0.046565693 0.06430957 -0.0797338
0001f0 63 e5 d0 3d c7 29 5e 3d 71 f2 c4 bd 39 60 ff 3a
       0.10200002 0.05423906 -0.096165545 0.0019483633
000200 b2 9e 25 3e 55 cf 25 3c e3 f3 f9 bd 63 2d a2 bd
       0.16173819 0.010120233 -0.12204721 -0.07918813
000210 6f 3c 5d 3d c3 42 a8 bd 85 07 5d be b7 6d 25 bb
       0.054012712 -0.08215859 -0.215849 -0.0025242397
000220 1c 5b ea bb 1f 4c 48 bd 89 6d 10 be 4d 82 1a be
       -0.0071519744 -0.04890072 -0.14104284 -0.15088768
000230 db 6c 9e 3d 0d db 57 3e af a2 62 bd 6f ca 7c 3e
       0.07735606 0.21079655 -0.05533093 0.24686597
000240 07 22 1b 3e 90 73 52 be b0 bb a7 bd 26 0f 04 be
       0.15149699 -0.20551896 -0.081900954 -0.12896404
000250 f6 1f a6 be d4 69 5a 3e b4 dc 1e bc 7e c1 43 3e
       -0.3244626 0.21329433 -0.009696174 0.1911678
000260 03 51 1c bd b6 3c 2c be 87 1a 4d be 34 b2 a7 3d
       -0.038163196 -0.16820034 -0.2002965 0.081882864
000270 a4 2c a8 3d 28 95 95 3d 8b 64 92 bb 27 42 4a 3c
       0.082116395 0.0730384 -0.004467552 0.0123448735
000280 cb 81 79 3d 6d ef 26 3e 71 61 8f 3d 24 82 41 be
       0.060914796 0.16302271 0.07001007 -0.18897301
000290 55 37 d4 3d d3 a5 be bc 28 82 d7 bd 0c ab a8 3d
       0.10362116 -0.02327243 -0.10522872 0.082357496
0002a0 69 2f cb bd 93 4b fd 3d 21 9b 03 3e 27 2d 27 3d
       -0.09921152 0.1236793 0.12852146 0.040814545
0002b0 be a7 78 bc 66 c6 07 be c9 2e 0d 3b cc 05 c4 bd
       -0.015176712 -0.13259277 0.0021542779 -0.09571418
0002c0 cd f8 b9 bd af 4b 24 be 09 52 4c 3c 8b 94 99 bd
       -0.09080658 -0.16044496 0.012470731 -0.074990354
0002d0 6c 02 13 be e9 78 1c bb a3 a8 83 3e c8 54 e9 3c
       -0.14356393 -0.002387578 0.25714597 0.02848281
0002e0 30 dd bb 3d 6e ee be bd f1 08 27 bd 26 4a f2 bc
       0.091730475 -0.093228206 -0.04078001 -0.029576372
0002f0 38 72 68 be c7 fc 55 be 7f 43 c3 3d 4d 8b 11 3e
       -0.22699821 -0.20897208 0.09534358 0.14213295
000300 73 32 0d 3b 5d b4 40 bd 67 e4 c7 3d 17 d5 9a 3d
       0.0021544963 -0.047047008 0.09760361 0.07560175
000310 c1 c9 cf bd 8f cb 95 bb 6d 28 c6 bd bb bf 2a 3b
       -0.101459034 -0.004571385 -0.09675679 0.0026054222
000320 66 8a d8 3d 43 59 05 bc 37 97 99 3d 84 08 95 3e
       0.105732724 -0.008138957 0.07499545 0.2910806
000330 da 78 d2 3c 93 a1 35 be 00 78 f4 3d 28 bf 6c 3e
       0.025692392 -0.17737417 0.11936951 0.23119795
000340 86 fd bc bd 69 6e e9 3d b4 09 f7 3c aa 25 9f 3d
       -0.09228043 0.11398012 0.030155994 0.07770856
000350 22 25 b6 bd 05 b1 90 3d a3 15 00 bd ce b3 91 be
       -0.08893801 0.07065014 -0.031270634 -0.28457493
000360 4a 44 6f 3d d0 17 db 3d 60 d3 81 bd 0e 2f ff bd
       0.058414735 0.10697901 -0.06339145 -0.12460147
000370 f9 5d e0 bd 72 5e 15 be e6 c4 6b 3c 6a 8a 42 3c
       -0.10955424 -0.1458681 0.014390206 0.011873821
000380 b0 a5 c3 bd 45 e9 ce 3d f4 d8 b6 bc b4 39 b3 bb
       -0.09553087 0.101030864 -0.022320248 -0.0054695252
000390 92 39 12 3e c4 6e 03 3d bc 2d 45 3d 86 a1 09 3d
       0.14279774 0.032088056 0.04813932 0.033601306
0003a0 63 eb 27 3e 99 39 06 bd bf 16 1f 3e 3e 3d cc bd
       0.16398387 -0.032769773 0.1553602 -0.099726185
0003b0 3b bc 97 bc 0d e7 05 3d 59 cf 29 be d1 22 cb bd
       -0.018522372 0.03269105 -0.16583003 -0.0991875
0003c0 15 15 27 be 57 78 d3 3e b2 a6 3b 3d 91 a1 42 3d
       -0.16316636 0.4130275 0.04581327 0.047517363
0003d0 e9 e0 22 bd ea 33 2e 3d f1 71 a6 bc 0d be bf bd
       -0.039765272 0.042529978 -0.020318003 -0.09362421
0003e0 de ba f6 bd 4b 68 c1 bd 1c 69 89 be 08 11 31 be
       -0.12047361 -0.094437204 -0.26838005 -0.17291653
0003f0 65 b4 fb 3d 1f d5 8b bd b6 0f bd 3d 6b af 18 3a
       0.12290267 -0.06827759 0.09231512 0.0005824479

DNN-Minispect/hidden_2/MatMul f4 [24, 72]
000000 c9 7f 88 be 49 89 67 be 7c d0 0b 3e 9b 77 fd 3c
       -0.26659992 -0.22610964 0.13653749 0.030940821
000010 e2 b8 8a 3d 4a 68 12 3e 08 79 e7 bd b6 a3 34 3d
       0.06773545 0.14297596 -0.11302382 0.04410144
000020 2f 61 a2 3e 63 09 8c be 90 b4 8c 3e 81 97 89 be
       0.3171477 -0.27350911 0.27481508 -0.268734
000030 39 e4 9f 3e 19 72 10 be 89 eb 20 be d3 b0 89 be
       0.31228808 -0.14106025 -0.1571485 -0.2689272
000040 99 e6 25 3e 28 46 28 3e 7d c7 76 3e 56 bd 9b be
       0.16201247 0.16433012 0.24099536 -0.3041789
000050 f9 0c e3 3e 72 21 e8 3d 68 a7 98 3c 71 5c 63 3e
       0.44345835 0.11334504 0.018634513 0.22203232
000060 33 95 c1 3d d3 24 0a be 3d 0c 0b 3e 1a b1 ac bd
       0.094522856 -0.1349061 0.13578887 -0.08432217
000070 28 bc e5 bc e8 da 5e be 19 8a 74 be b6 a3 cd 3d
       -0.028043821 -0.21763194 -0.23880805 0.10040991
000080 b8 03 df 3c 8c b6 34 3d 49 c2 93 3e 51 11 b1 be
       0.027223453 0.044119403 0.28859165 -0.34583524
000090 ae d6 8b bd 92 12 32 be b8 89 23 3e 9f ba 92 be
       -0.06828056 -0.17389897 0.15970504 -0.28658006
0000a0 bc ff 98 3e 93 52 ac 3e 6d 13 ac 3e 08 f9 ff 3d
       0.2988261 0.3365675 0.3360857 0.12498671
0000b0 67 16 a1 be e4 2d 4f 3c 91 69 92 bd 5b d7 0d 3f
       -0.31462404 0.0126452185 -0.071490414 0.5540673
0000c0 31 54 ec bd fc f2 9d be b9 09 34 be 38 9a a7 3e
       -0.11539496 -0.30849445 -0.17581834 0.32734847
0000d0 ad b0 6e 3d 28 92 79 3e af 40 d2 be 35 f6 3f 3e
       0.05827396 0.2437216 -0.41064975 0.18746264
0000e0 c8 6d 83 bc 97 31 d6 bc b5 94 68 be 5d e0 09 3d
       -0.016043559 -0.026146693 -0.22712977 0.033661235
0000f0 61 40 fb 3d 20 68 36 3e e4 f6 99 3e 4c 76 97 bd
       0.12268139 0.17813158 0.30071175 -0.0739561
000100 13 27 6f bc 80 1d 93 bd 61 41 ce bd 86 2d d4 3c
       -0.014596718 -0.07183361 -0.10071064 0.025900614
000110 54 bf 0a bd 5e 75 c8 bd 41 57 c4 3c a5 af 2b 3d
       -0.03387387 -0.09788011 0.023967387 0.041915555
000120 a7 d5 0f bc a7 9f 8f be 24 87 db be 34 d1 4e 3e
       -0.008778966 -0.28051493 -0.42876542 0.20196992
000130 d6 0f cc bd 55 58 34 be 65 4f d1 be 26 7d e1 be
       -0.09963958 -0.17611821 -0.40880886 -0.44040793
000140 a7 b5 5c 3e 9e cb d7 bd 2d 19 dd bb 67 81 2b be
       0.2155367 -0.10536884 -0.006747386 -0.16748582
000150 f6 5c 70 be 12 39 47 3e e2 2c 1c 3e fd f3 74 3d
       -0.23472962 0.19455364 0.15251496 0.059802998
000160 a7 07 74 3d 6e ff 9c 3e f3 3e 2e bd 21 e0 cc 3d
       0.05957761 0.30663627 -0.0425405 0.10003687
000170 e6 ac bd bd 0f 16 9d bd a8 b0 cb 3d c1 76 4e be
       -0.092614934 -0.07670223 0.09945804 -0.20162489
000180 4d f0 b9 bd f3 78 9a b9 86 f4 cf 3e 1b 81 82 3e
       -0.09079037 -0.00029463283 0.40616244 0.25489125
000190 81 03 ea 3d d3 af c5 bd d5 ed b0 bd c1 6d 45 be
       0.114264496 -0.096526764 -0.08639113 -0.19280149
0001a0 f6 d5 18 bd fc 51 56 be af 92 c8 3c 2e ba 73 3c
       -0.037313424 -0.20929712 0.024484007 0.014875932
0001b0 73 ef 63 3d de fd 53 3e 24 3b 49 be b7 47 22 3d
       0.05564828 0.20702311 -0.19651467 0.039619174
0001c0 8e 36 6a be 25 8e 3e be a6 6f 6c 3e 2a 53 89 be
       -0.22872373 -0.18608911 0.23089465 -0.26821262
0001d0 7a f2 92 be c6 14 5c bd 21 42 7c be fc cd a7 bd
       -0.2870062 -0.05373075 -0.24634601 -0.08193585
0001e0 26 b8 9b be 09 1b 0e be 32 40 a4 3e 12 d6 4c 3e
       -0.30413932 -0.138775 0.32080227 0.20003536
0001f0 6b b6 db bd 5c 67 b5 3c 4d 09 6f be a8 a4 22 bd
       -0.10728153 0.022144012 -0.23343392 -0.03970781
000200 49 d3 06 3e 30 02 11 be a8 6a db 3d 87 66 7f be
       0.13166536 -0.1416099 0.107137024 -0.24941455
000210 82 91 a1 bd 13 26 94 bd 60 f2 88 bd 1a 17 d6 bd
       -0.078890815 -0.072338246 -0.06686854 -0.10453625
000220 01 05 80 be a4 77 2c 3e d9 7e be 3e d2 b8 e3 bd
       -0.25003818 0.16842514 0.37206152 -0.11119236
000230 d2 46 d5 bd 14 9d 47 bd f0 cc 2d be 1c 2a 95 bc
       -0.104138985 -0.048733786 -0.16972709 -0.018208556
000240 1a 66 a8 bb a7 ba cf bc ec 22 98 3e 26 76 bf 3e
       -0.0051391246 -0.025357557 0.29714143 0.37394828
000250 6b 82 7a 3c a6 ab b0 bd 3a 2e 28 3e 21 35 c3 be
       0.015289883 -0.08626489 0.16423884 -0.38126472
000260 59 ca 84 3e d3 84 68 3e cd 77 b5 be 12 4d 75 3e
       0.2593563 0.22706918 -0.35442963 0.23955181
000270 6c 73 9f be f0 bb 29 be 32 8c 80 be 52 d0 8c be
       -0.31142747 -0.16575599 -0.2510696 -0.27502686
000280 f8 9e 26 be 1d 12 e7 3e fb 25 4e be 0e f5 0e 3a
       -0.1627158 0.45131007 -0.20131676 0.0005453386
000290 3b e8 46 3e 64 15 c4 3b 72 6e cf 3d c2 8a 0c bf
       0.19424526 0.0059839953 0.10128488 -0.5489923
0002a0 4c bc fd 3e 6a b9 92 3d ff 68 25 3e 82 b0 b8 be
       0.49557722 0.07164271 0.16153334 -0.36072165
0002b0 6c 4f 63 3d 0d 88 da bd 01 3c f1 3e 9e 0e 0d 3d
       0.055495664 -0.10670481 0.47116092 0.03443777
0002c0 22 61 43 be a6 75 34 3e a9 72 5f be a5 a1 99 bd
       -0.19080022 0.17623004 -0.21821083 -0.075015344
0002d0 0e d0 e6 3d 32 ec 3c be ac 0d 88 be 90 4e 83 3e
       0.11270152 -0.18449476 -0.2657293 0.25645876
0002e0 93 30 4e 3e 91 52 4d be 8d 6d 91 bd bf 6f 10 3e
       0.20135717 -0.20051028 -0.07100973 0.14105128
0002f0 70 1b 63 be 9b 28 9d 3d 4c eb ef 3d 9b dd 1f 3f
       -0.22178435 0.076737605 0.11714801 0.6244752
000300 80 85 71 3d f9 d5 c7 3e 2e 2e 2b be 4c 7f 8a 3e
       0.058965206 0.39030436 -0.16716835 0.27050245
000310 48 ab 67 3d d3 f9 0e 3c 6a 4d d9 3e 63 85 9f 3d
       0.05655983 0.008726555 0.42441875 0.077891134
000320 9e eb 11 be 60 9c e7 3d 5b 6c 39 3e 68 76 21 be
       -0.14250037 0.11309123 0.1810774 -0.15767825
000330 df 31 4a 3e 8b f8 cd 3d 35 a6 b4 be b9 aa dc 3d
       0.19745587 0.100571714 -0.35283056 0.1077475
000340 aa f5 4f bd ad ae 7e 3e 6c 51 80 be 9d 3c 9f 3d
       -0.050771393 0.24871321 -0.2506212 0.07775233
000350 9d bb b7 3d ee 9c 73 be 39 47 01 bd f8 e0 8c 3e
       0.08971331 -0.23790333 -0.031562064 0.27515388
000360 8a 7c d4 3d 2c 17 59 be 5a 3a ad 3d 34 5d b4 3e
       0.103753164 -0.21200246 0.08458395 0.35227358
000370 52 03 ba 3e a4 56 00 be 88 d9 7e 3c f1 d9 c1 be
       0.36330658 -0.12533051 0.015554793 -0.3786159
000380 97 d7 03 3d 82 be 70 3e d5 c7 4a bd fc 13 ba 3c
       0.032188024 0.23510173 -0.04950698 0.022714607
000390 7d 80 f7 3d 4e 93 13 3e fd 7e 51 bd f5 ae c8 3e
       0.12085054 0.14411661 -0.051146496 0.39195982
0003a0 d7 b3 e1 3d aa cd 27 be 1c 80 f8 bc 0d ba 39 3e
       0.1102063 -0.16387048 -0.030334525 0.18137379
0003b0 21 d6 c7 bd 15 d8 21 3d cd 56 1c 3e 13 96 8d bd
       -0.09757639 0.039512713 0.15267487 -0.0691339
0003c0 64 06 5b be d5 b8 8f 3e 6a 00 cf bb 7a 67 19 3e
       -0.21389157 0.28070703 -0.006317188 0.1498088
0003d0 28 64 82 bd 32 16 1f be 6f d2 94 be e3 fb 2e 3e
       -0.063667595 -0.1553581 -0.29066798 0.17088275
0003e0 b6 99 1c 3e b3 97 4a bd 7b 97 8f bd 5a 0b 91 3e
       0.15293011 -0.049461078 -0.070113145 0.28328973
0003f0 9e 54 b6 bd 82 56 9f be 58 0f 2e 3e a4 ed 92 be
       -0.08902858 -0.31120688 0.1699804 -0.2869693

DNN-Minispect/output/MatMul f4 [1, 24]
000000 64 f6 cf 3e 2e 3c eb 3e 2b 54 ae be 7e 09 87 bc
       0.4061767 0.4594435 -0.3404859 -0.016484018
000010 d6 95 14 3e 27 36 81 3e 64 d0 a3 3d f9 45 b0 be
       0.14510283 0.25236627 0.07998732 -0.34428385
000020 c2 3c 2f 3d 1b 5e 33 3e 37 c6 80 bd e6 50 fb bc
       0.042782553 0.17516367 -0.062878065 -0.030678224
000030 f0 aa 0e 3e 06 fb 9a 3d 27 96 ba 3e 06 a0 e7 3d
       0.13932395 0.0756741 0.36442682 0.11309819
000040 5e 3e e0 3d 9b f0 0a bf 4f db f5 bd 66 c4 36 3e
       0.109493956 -0.54273385 -0.120047204 0.17848358
000050 15 9b 4a be 92 b3 4e bd b8 37 84 be 84 b8 3b bc
       -0.19785722 -0.05046422 -0.2582376 -0.011457566
