models/chl_nn_minispect.tflite (tflite, 755120 bytes, 4 tensors)

DNN-Minispect/hidden_0/MatMul f4 [288, 576]
000000 0a 09 0b 3d 3a e6 55 3c 22 ce 45 3d a7 52 30 bd
       0.033944167 0.013055379 0.048292287 -0.043047573
000010 a2 28 91 3d 95 08 00 bc ef 7d b4 bc 7a 7c 3c bd
       0.07087828 -0.007814546 -0.022032706 -0.046017148
000020 ca e7 38 3b d3 c9 f6 bb 0f 0b 9d bd af 73 d5 3d
       0.002821433 -0.0075313835 -0.07668125 0.104224555
000030 6e 8a c9 3c 86 fe 44 3d b9 d2 4c bc 8b 0e 98 bd
       0.024602141 0.048094295 -0.012501412 -0.07424649
000040 15 f9 45 bd 70 8e 5a bb 70 88 49 3d 4a 66 d8 3c
       -0.048333246 -0.003334906 0.049202383 0.026415963
000050 ad 01 de 3b 84 a4 8a bd 3a 46 02 bd f8 6e 00 3d
       0.006775102 -0.0676966 -0.031805255 0.031355828
000060 10 15 83 bd 4a 46 0d bd 99 2a 91 bc e8 82 95 bc
       -0.06400502 -0.03449086 -0.017720507 -0.018250898
000070 59 f4 50 bd 2a 66 c3 3c 3c 1a aa bd 38 b7 bf 3d
       -0.051014278 0.023852427 -0.08305785 0.09361118
000080 18 e6 93 3d 2f d4 3c 3d 65 a6 b8 bd db 7a 08 3d
       0.07221621 0.04610079 -0.09016112 0.03332029
000090 da ed 41 bd f0 db 61 3c e4 f6 df 3d 90 9b 66 bd
       -0.047345974 0.013785347 0.109357625 -0.0563007
0000a0 92 2b d7 3c 15 fb 6c 3c 41 50 38 3d c1 7e 04 3e
       0.026265893 0.0144641595 0.04499841 0.12938978
0000b0 05 be bd 3c 19 89 14 bd 11 60 d5 3d 89 eb 05 3d
       0.023161897 -0.03626356 0.10418714 0.032695327
0000c0 5b 85 e8 3c bb 98 aa 3d db 25 08 bd 4d a5 fa 3c
       0.028383901 0.08329912 -0.033239227 0.0305964
0000d0 79 bf f6 bc f9 ab 1c bd c0 36 c0 bc ce 66 0f be
       -0.030120598 -0.038249943 -0.023463607 -0.1400406
0000e0 c6 67 c3 bc 61 3d 58 3c 9d 51 fd 3c 44 8b 0b bd
       -0.023853194 0.013198228 0.030922705 -0.03406836
0000f0 60 6f c6 bc ca 28 79 3c c4 44 ea 3c c1 94 27 3d
       -0.02422303 0.015207479 0.028597243 0.040913347
000100 de 78 0b be 59 91 2f bc 10 e3 36 3d 9e 33 f9 3c
       -0.13620326 -0.010715806 0.044650137 0.03042012
000110 b7 34 9d 3d 45 e3 e9 bd 18 22 c0 3b 8c 39 47 bb
       0.0767607 -0.11420301 0.0058634393 -0.003039929
000120 18 f0 cd bc 53 72 2b bd 79 cf e8 3c a9 06 49 3c
       -0.0251389 -0.041857075 0.028419243 0.012269654
000130 1c 0b 08 3d 0e 81 14 bd 70 bf ad bd e7 dd c0 bd
       0.03321372 -0.03625589 -0.084837794 -0.094173245
000140 83 dc 10 3d dc 6a e9 bc a2 ca c1 3c 30 df 29 3e
       0.035366546 -0.028493337 0.023656193 0.16589046
000150 29 5c 82 3d ec 83 1f 3a e3 9b 7e bc 32 95 17 bd
       0.063652344 0.00060850265 -0.015540096 -0.037007518
000160 ee 44 eb bd 3d 0f e6 3c 27 0f 44 bd c4 b9 80 3d
       -0.11487757 0.028083438 -0.047866013 0.06285432
000170 71 15 40 3e 14 c4 dc 3c ac 53 59 bb a7 56 92 bd
       0.18758179 0.026948966 -0.0033161445 -0.07145434
000180 95 d4 04 bd c9 81 3d bd f0 6d 19 3d e2 9d a8 3c
       -0.032429297 -0.04626635 0.03745836 0.020583097
000190 88 05 38 bd 91 c7 1e be 07 0d d5 bc 19 4d 18 bd
       -0.04492715 -0.15505816 -0.026007188 -0.0371829
0001a0 97 40 71 bd 20 2a 17 3a a1 b1 8b 3d 66 dc 72 3d
       -0.05889949 0.000576647 0.068209894 0.05929222
0001b0 4c 12 02 bd f6 31 5d 3d d1 88 8f bd 87 33 06 bc
       -0.03175573 0.054002725 -0.070085175 -0.008190996
0001c0 72 ff a9 3d c0 cf a8 3d 89 b1 d6 bd f8 e8 aa bd
       0.083006755 0.0824275 -0.10483081 -0.083452165
0001d0 20 ce b4 bc 65 04 99 bd 24 b7 af bd c4 ce 9d 3d
       -0.022070944 -0.07471541 -0.08579853 0.07705453
0001e0 08 e9 8f 3b 77 67 04 3d e6 67 0b 3d c2 35 18 3d
       0.004391793 0.032325234 0.034034632 0.037160642
0001f0 1e 7d cb bc d5 57 bf bc e9 c0 3a bd 7f 03 b7 3d
       -0.024839934 -0.023357311 -0.04559413 0.08936214
000200 4f 19 13 3e d7 0e e3 3b 1f f5 bb 3d 87 04 26 3e
       0.14365123 0.0069292593 0.091776125 0.16212665
000210 60 dc 66 bd c5 f4 10 bd 11 d0 15 bd 48 62 3e 3d
       -0.05636251 -0.03538968 -0.03657538 0.046480447
000220 65 ca 26 3d d5 d5 05 3d ea c3 f6 bc 8d e8 c6 3c
       0.040720362 0.03267463 -0.030122716 0.02428081
000230 6f 25 26 3d ae 33 cf bc 86 e2 17 bb 3b da 10 bd
       0.040563043 -0.025293197 -0.002317579 -0.03536437
000240 7d 5a 43 3c 90 3f 85 bc 7d ee de bc ee e7 0a bc
       0.01192343 -0.01626566 -0.02721333 -0.008478148
000250 3d 67 f5 bb 4d a3 a7 3d 22 f3 5d 3d 75 ef b6 bd
       -0.0074891136 0.08185444 0.054186948 -0.089323916
000260 d2 a8 b4 3d f1 4e 92 3b 32 5f fe 3c 94 65 3c be
       0.088212624 0.004464977 0.031051252 -0.18398124
000270 7d 60 18 3c d9 14 0f 3d 1f 06 19 bd 5f 7a 1d 3b
       0.009300348 0.03493199 -0.037359353 0.0024029238
000280 c6 c0 12 3b 87 c2 b6 bd e4 be 4f 3d 66 56 6a bc
       0.0022392734 -0.08923822 0.050719157 -0.014302826
000290 d7 85 92 bc 82 11 6e bc 3d c1 d4 bb ce b9 4f 3d
       -0.017886085 -0.014530541 -0.0064927624 0.050714307
0002a0 cf ec 25 bd 89 44 29 3c 1e 01 bd bd 02 71 85 bc
       -0.04050904 0.010331281 -0.09228729 -0.016289238
0002b0 f7 00 8a 39 30 79 fc 3b f4 6f 97 bd ae 84 df ba
       0.0002632213 0.0077048764 -0.073944 -0.0017053091
0002c0 17 10 85 3d f4 40 d8 3c 84 cc 84 3d f4 d6 a0 bc
       0.064972095 0.02639816 0.06484321 -0.019633748
0002d0 7a 4d 70 bd 9a 6e 40 bd c3 2d d9 bc a4 08 1d bd
       -0.058667637 -0.046980478 -0.026511079 -0.03833832
0002e0 40 92 03 3d e1 38 c5 bc e8 8f 90 3c 74 1c 51 bd
       0.032121897 -0.024074974 0.017646745 -0.051052526
0002f0 1c be 1d be 41 a4 00 3d 9c a4 6f bd 65 a6 dc 3b
       -0.15404552 0.031406645 -0.058506593 0.006733703
000300 7d 6f 1a 3b 42 d2 9f 3c 20 58 cb 3c 4c 31 f7 3c
       0.0023564987 0.019509438 0.024822295 0.030174874
000310 ec 07 91 3d 66 c4 94 bd 87 16 ba 3b ea 8a 5a 3d
       0.07081589 -0.072640225 0.005678955 0.053355135
000320 21 01 16 3d fe 72 56 3c 75 48 3c 3d 03 29 ba 3d
       0.03662217 0.01308894 0.045967538 0.090898536
000330 63 9a 4f bd 66 2e 07 3e d9 af ae 3c 61 dc 46 bd
       -0.050684344 0.13201293 0.021324085 -0.048550013
000340 17 4d af 3c 66 b7 3a 3d d0 e4 46 be 61 e3 09 3d
       0.021399064 0.04558506 -0.19423223 0.03366411
000350 6d d9 2d bd 40 23 05 bd 6b 23 13 3e 6e 86 bc 3d
       -0.04244368 -0.03250432 0.1436898 0.09205328
000360 f7 ae f6 3c ed 8a 9d bd 72 5f d4 3d 13 6d a7 bd
       0.030112727 -0.076925136 0.10369767 -0.08175101
000370 84 4c 24 bd ad e1 8c bc 2e 3e 9a bd 35 e3 89 bd
       -0.040112033 -0.017197454 -0.07531391 -0.067327894
000380 cf d8 22 bd d1 55 b3 bd ab 8f 20 3b ba 54 af bc
       -0.039757546 -0.087566026 0.0024499695 -0.021402705
000390 2d 97 83 bd 2a 6c a7 3d 3d a8 73 bd fb 89 40 bd
       -0.06425319 0.081749275 -0.059486616 -0.04700659
0003a0 a8 48 4c bd a3 0a ba 3c 5c 86 19 bd 58 db 21 bd
       -0.049873978 0.02271015 -0.03748165 -0.039515823
0003b0 1e 49 b0 bb f5 de 80 bd da 50 34 3d fe ba 4c 3c
       -0.00537981 -0.06292526 0.04402242 0.012495754
0003c0 7a d6 62 3d 8f f3 63 3c c8 07 65 3d 3c c7 86 3c
       0.055380322 0.013913049 0.055915624 0.016452424
0003d0 ed 23 a6 bc e8 e9 9a 3d a9 6f 08 be 01 17 37 3c
       -0.020280803 0.07564145 -0.13323845 0.011174918
0003e0 d7 dd e7 3c 58 da 02 bd 4b 3c c0 3d 63 38 49 3d
       0.028304024 -0.03194651 0.093865 0.04912604
0003f0 0c 3a 3b 3d d3 40 7f bd 9d b6 31 3c a3 36 14 bd
       0.045709655 -0.06231768 0.010846761 -0.036184918

DNN-Minispect/hidden_1/MatMul f4 [72, 288]
000000 d5 05 52 3e 00 dd bb 3c 64 af 35 bc 40 28 ed 3d
       0.20510037 0.02293253 -0.01108918 0.11579943
000010 fc a6 cb bd ca ba 8d 3d d9 7f c7 bd f6 3f a4 be
       -0.09943959 0.06920393 -0.09741182 -0.32080048
000020 79 f1 2e be af 1f 79 bc a6 8f 9b 3c 3b ce b0 3e
       -0.17084302 -0.015205308 0.018989395 0.3453234
000030 15 59 90 bd 5b b6 ce bd fb 41 8f 3b ac 1c c3 3d
       -0.07048241 -0.10093375 0.004371879 0.09526953
000040 65 34 16 3e 0f d2 ce 3d 9f 94 d1 3d 8b 06 6a 3d
       0.14668424 0.10098659 0.10233425 0.057135146
000050 5a 1a b2 3c 9c 05 4f 3d 14 17 28 be 4f 90 67 be
       0.021741081 0.05054246 -0.16415054 -0.22613643
000060 fb 57 12 be 4e e1 4b be d8 5d 1d 3d fe 05 52 3e
       -0.14291374 -0.19910166 0.038419574 0.20510098
000070 35 9a 29 be 4a d0 34 3d ae 3e e5 bc a7 cc 06 3e
       -0.16562732 0.044143952 -0.02798399 0.13164006
000080 24 83 3f bd 6a 51 55 3d cc ce a1 3c 84 67 3b bd
       -0.046755925 0.052079596 0.019751929 -0.045753017
000090 dc 50 56 bd 2f 65 9f 3c 23 4b c7 3d f0 88 78 3c
       -0.052323207 0.019457428 0.09731128 0.015169367
0000a0 47 e1 fc bc f1 42 05 3e 3c 9d e4 3d 47 c7 84 bd
       -0.03086914 0.13013817 0.111628026 -0.06483322
0000b0 06 ac 0c be 77 7b c7 bd a0 fe d4 bd 7d ae 59 3c
       -0.13737497 -0.09740346 -0.10400128 0.01328623
0000c0 98 87 f3 bc 71 3a 82 3c 87 20 3c be dd d9 bd bd
       -0.029727742 0.015897008 -0.18371783 -0.0927007
0000d0 0f ca 15 3e 38 4a f0 bd 35 4b 2d be c0 47 02 3e
       0.1462786 -0.11732906 -0.1692322 0.12722683
0000e0 b0 f7 cb bd d1 50 ae 3c 9c 37 cb bd e0 e9 4e bd
       -0.09959352 0.02127877 -0.09922716 -0.05051601
0000f0 3d 86 03 3c 6e 3f db be 13 94 89 bc e5 18 37 bc
       0.00802761 -0.4282183 -0.01679424 -0.011175369
000100 12 0d 3d be f2 2a 81 be 9e 4e 9f 3d 50 4b 42 bd
       -0.18462017 -0.25228077 0.07778667 -0.047435105
000110 db 91 17 3e 14 e0 ca bd bf bc 42 bd 96 40 01 bd
       0.14801733 -0.09906021 -0.047543284 -0.031555735
000120 c7 ab 24 3e 36 f1 08 3e a9 3a f4 3d 76 b3 05 bd
       0.16081153 0.13373265 0.11925251 -0.03264185
000130 61 cb a2 3d 79 07 4a bd 2b 69 4a be 1e c6 e8 bd
       0.07948948 -0.049323533 -0.19766681 -0.11365913
000140 80 81 d1 3d b2 5f dd 3b c5 d7 d3 3d 1f fe ea 3d
       0.10229778 0.0067557925 0.10343889 0.11474251
000150 02 e3 68 bd 9f 00 de 3c 75 ab 48 be 1a 1e 67 be
       -0.056857117 0.027099906 -0.19596656 -0.22570077
000160 fb da 27 3b 9f b7 ae 3d c9 ca 0a bd 67 b9 ea 3d
       0.00256127 0.08531117 -0.033884797 0.11461144
000170 d6 e1 1e 3c ac 0f 3e be b6 5b d7 3d 51 b1 a8 3d
       0.009697398 -0.18560666 0.10515539 0.082369454
000180 1f f3 56 3c 45 b9 21 3d 46 02 c9 3d 9d 27 31 bd
       0.013119488 0.039483327 0.09814887 -0.04325067
000190 59 a6 d6 3d 46 45 ed bd 38 4b 98 bd f7 58 48 be
       0.10480947 -0.115854785 -0.07436222 -0.19565187
0001a0 bc b3 87 3d f2 cf 2e 3d b6 3e c1 bc 52 80 fc 3d
       0.066260785 0.04267878 -0.023589473 0.12329163
0001b0 29 92 44 bd de f3 88 bd 84 7d 1c 3e a2 30 1e 3d
       -0.04799095 -0.06687139 0.15282255 0.0386206
0001c0 8d fc 84 3e ac eb 77 be 16 ea 4e 3e cf 47 ae ba
       0.2597393 -0.24210995 0.20206484 -0.0013296547
0001d0 37 3e 06 3d ea ee fb 3d aa 31 8a ba eb a0 bc bd
       0.032774176 0.123014286 -0.0010543365 -0.0921038
0001e0 d4 17 39 bc 60 1f 46 3d 24 56 81 bc fd 9b eb 3d
       -0.011297185 0.048369765 -0.015788145 0.11504362
0001f0 cb 82 c5 3c d2 90 30 be fb 75 95 3d e7 77 38 3e
       0.024110219 -0.17242745 0.072978936 0.18014489
000200 0b 92 a8 3d 9c 95 3f bc e6 18 2b bd 07 a4 30 be
       0.082309805 -0.0116933845 -0.041771792 -0.17250071
000210 b6 97 ab bd 1f 22 78 3d 3a c1 ac 3c 5c a2 dd bd
       -0.08378546 0.060579415 0.021088231 -0.10821983
000220 d9 ad 04 be 3e 52 ca bc 76 2a fd bd 9b 3b c2 bc
       -0.12956943 -0.02469742 -0.123616144 -0.023710063
000230 0d de 3c be 95 15 a0 bd d7 ad e4 bd 42 c6 70 bd
       -0.1844408 -0.078166164 -0.1116597 -0.058782823
000240 3d 0d 03 3d 0c 4d 5c 3e 04 f9 13 3d 09 cb 8b 3d
       0.031995047 0.21513766 0.03612615 0.06825835
000250 dc 46 ff 3d 23 51 99 3d c6 6a 4f bd fa 50 07 be
       0.12464687 0.07486179 -0.050638936 -0.13214484
000260 d8 fa c1 3d 54 01 28 be 0c 3b 32 3e d1 dd 11 3e
       0.09471673 -0.16406757 0.17405337 0.14244772
000270 3a 5e 55 bd 39 05 d9 3d c8 9c 5e 3d 76 9c 6e 3b
       -0.052091815 0.10596699 0.054348737 0.0036409176
000280 99 8b 90 bd 0b 20 07 be 13 06 c9 3c 62 88 ed 3d
       -0.07057876 -0.13195817 0.02453903 0.115982786
000290 36 06 ef 3d 8b 34 17 3e ae ec 63 be d9 10 9e 3d
       0.116711065 0.14766137 -0.22258255 0.07718057
0002a0 3b 4a 9d bb 8b 1b 4a 3b ec 27 91 3c 17 bb 05 3e
       -0.0048001087 0.003083917 0.017719232 0.1305965
0002b0 f9 7d b1 bd 94 f1 9c bd 6f c4 1a bd 01 f6 8f 3c
       -0.086666055 -0.07663265 -0.03778499 0.017573358
0002c0 48 8b 9e 3d 61 2e e5 bd ff 6d e4 bd db 1e 7b 3d
       0.077414095 -0.11190487 -0.111537926 0.061308723
0002d0 a2 2b e6 bd c3 f9 32 3e 9f a6 ae 3c fc 6f c2 bd
       -0.11238791 0.17478089 0.021319686 -0.094940156
0002e0 05 cc ae 3c 04 b1 ab 3d c0 46 57 3d 99 d4 50 bd
       0.021337518 0.083833724 0.052557707 -0.050984
0002f0 27 84 50 bd e1 95 cb 3d 09 36 e6 bd a7 2c 8a bd
       -0.05090728 0.099406965 -0.11240775 -0.06746798
000300 47 00 5e 3e ba df 3a 3c 6d 05 ea bd 7f 98 b3 bd
       0.21679793 0.01140588 -0.11426816 -0.08769321
000310 fb c5 e4 bc b3 77 3c 3d 6a 3d 20 be eb c5 d2 bd
       -0.027926436 0.04601259 -0.15648428 -0.10291656
000320 41 4e 1b bd db 9b 00 be 97 10 9a 3d 3f e2 ab 3d
       -0.037916426 -0.12559454 0.075226955 0.083927624
000330 28 15 bf bd 09 27 4d 3c d1 df 9a 3e 9b 34 e9 3b
       -0.09330207 0.012521514 0.30248883 0.0071168668
000340 40 e8 dd bd 44 22 f4 3d e3 20 25 3e bb b9 a2 3d
       -0.10835314 0.11920598 0.16125827 0.079455815
000350 d8 cc 91 bc ab bc cc bc fd 02 9c 3d 9c d8 88 bb
       -0.017797872 -0.024992308 0.076177575 -0.0041762125
000360 d2 f4 97 3d d5 f1 9c bd ac a4 c5 bc 26 0d 04 3e
       0.07419743 -0.07663313 -0.024126373 0.1289564
000370 b6 42 b5 3c 30 1e b1 3d 84 a0 c4 3c 69 cd a8 bd
       0.022126537 0.08648336 0.024002321 -0.08242304
000380 a9 e3 30 3e 6a 09 45 be a2 e3 11 3d ea c3 09 3e
       0.17274345 -0.19241872 0.03561748 0.13453642
000390 d1 91 9e bd b4 31 ef bc 91 de af bc 23 1f 48 be
       -0.07742656 -0.029198505 -0.021468433 -0.19543128
0003a0 73 cd 5e bd 7a 6c a1 3d 21 c6 bd 3d 6d ed a1 3d
       -0.05439515 0.078820184 0.09266306 0.079066135
0003b0 8d c4 b1 3c 98 b3 dd 3d e9 06 e1 bd 25 d3 39 3e
       0.021700168 0.108252704 -0.10987646 0.18146951
0003c0 8b 9c ec 3c f2 e8 34 bd ff cf 7f 3d ac cc d9 bc
       0.02888324 -0.044167466 0.06245422 -0.026586853
0003d0 94 e3 73 3e e8 46 25 bd 63 22 a4 3d 8e ff c2 3d
       0.23817283 -0.040350825 0.08014371 0.095213994
0003e0 4f 61 47 3e 3b 40 c7 3c 49 9f 7f bd 4a e9 55 bb
       0.19470714 0.02432262 -0.062407766 -0.0032640272
0003f0 e1 96 26 be e0 9e e9 3d 88 41 73 be cb 93 6e be
       -0.16268493 0.11407256 -0.23755467 -0.23298566

DNN-Minispect/hidden_2/MatMul f4 [24, 72]
000000 af 7c 39 3e 6c 3d f6 3d 6a bd 08 be 1f 9a c6 bc
       0.1811397 0.12023434 -0.13353506 -0.024243413
000010 56 45 1a be b2 eb 45 bd 22 74 e5 be 1a 6e b3 3c
       -0.15065512 -0.04832048 -0.44815165 0.021903086
000020 7e 4b 4c 3c 46 f2 0c be 35 48 a0 bb a6 74 3d be
       0.012469171 -0.13764295 -0.0048914202 -0.18501529
000030 71 39 85 3b e1 bf e6 bc 44 7c d9 be ee d5 29 bd
       0.0040656854 -0.028167667 -0.4247762 -0.041463785
000040 19 eb 8d be b7 dd de 3e 0d 66 91 3d e4 2d 45 3e
       -0.27718428 0.4352853 0.07099543 0.19255787
000050 45 af c6 bc 1d e8 13 bd b0 6f 59 bd a6 0d 48 3e
       -0.024253497 -0.036110032 -0.05308503 0.19536456
000060 b0 b3 3d be f9 89 e0 be 02 06 09 3c f5 d8 a8 3d
       -0.18525577 -0.43855265 0.008363249 0.08244506
000070 3f 7c 62 3d dd a0 ac 3c 29 3d ac 3e b9 02 5d 3e
       0.05529427 0.0210728 0.33640411 0.2158307
000080 a9 28 db bd b7 a5 d7 bd b8 e5 8d be de c9 b7 bd
       -0.10701115 -0.105296545 -0.27714324 -0.0897405
000090 3d 75 b8 be 17 ca 50 3e 7f 1c 09 be e7 ca 68 bc
       -0.36026946 0.20389591 -0.13389777 -0.014208532
0000a0 d4 42 b6 be b2 46 11 3d 00 cc 57 bd 18 c4 85 be
       -0.3559786 0.03546781 -0.052684784 -0.2612617
0000b0 04 8b 6f be f4 45 24 bb 9f d1 70 3e 5f 3c 0e 3c
       -0.23392874 -0.002506611 0.23517464 0.008681386
0000c0 ef 24 72 be ba 49 72 3e f1 94 be 3d 68 27 9c 3d
       -0.23646902 0.23660937 0.09305752 0.07624704
0000d0 8a 6e 60 be 00 76 2b be b6 16 89 3e 9c db c6 bd
       -0.21917167 -0.16744232 0.2677514 -0.09709856
0000e0 14 bf d7 bc 2a 06 84 3e 04 d5 ae be b2 b3 83 bd
       -0.02633623 0.25785953 -0.34146893 -0.064307585
0000f0 b4 06 08 3d c5 33 86 3e 19 29 03 3e ff f3 92 3e
       0.033209518 0.26211372 0.12808646 0.2870178
000100 64 fc 88 3e 1a 93 97 3e 3c 14 93 be 95 b0 66 bd
       0.2675506 0.29604417 -0.28726375 -0.056320745
000110 97 bf 4c be 8b 89 3b be ab 43 88 3e 25 1d 04 3e
       -0.1999496 -0.18314187 0.26614127 0.12901743
000120 32 09 7e be 41 76 10 3d ca 29 c5 3c bd c8 96 bd
       -0.24808195 0.035269026 0.024067778 -0.073625065
000130 5f a5 8d bd de 09 bb 3d 24 2f e5 3e 49 97 5f 3e
       -0.06916308 0.091327414 0.44762528 0.21835054
000140 c3 26 f5 3d ed 48 19 3e 69 5e ad 3d c9 8d 66 bd
       0.11970284 0.14969225 0.08465273 -0.05628756
000150 8b 7c e5 be f5 2f 3e 3e 16 b3 3c 3e 4e c9 f8 3d
       -0.4482158 0.18572982 0.18427691 0.12147771
000160 5e 68 25 3e d4 96 bb be 29 8b 99 be 84 4b 85 bd
       0.16153094 -0.3663851 -0.29988983 -0.06508544
000170 96 1f ea 3d ad 51 27 3c 17 54 c7 be 39 a3 33 3d
       0.11431806 0.010212344 -0.38931343 0.043856833
000180 a2 07 ae 3e 9c cf bf 3d 4e f7 cb bd f6 8f 5d 3d
       0.33990198 0.0936577 -0.09959279 0.05409237
000190 af 67 01 3d a9 4d 7a 3e 3d 3c 54 3e d2 96 e2 bd
       0.03159302 0.24443687 0.20726104 -0.11063923
0001a0 8d 12 17 bc 26 f5 09 3e 5c ec 94 3d 5e 0e 57 3e
       -0.009220731 0.13472423 0.072716445 0.21001574
0001b0 26 b5 c8 bd 37 60 db be 6c 5f d4 bd 49 93 02 bd
       -0.09800176 -0.42846844 -0.10369763 -0.031878743
0001c0 11 52 74 be 08 08 a3 bd b0 e1 58 be cb 0a 3c bd
       -0.23859431 -0.07960516 -0.21179843 -0.04590873
0001d0 c7 6a 59 3e a2 f8 ce bb 76 28 69 be 97 3b 8c 3e
       0.21232139 -0.0063162604 -0.22769341 0.27389213
0001e0 22 a2 fc bd 81 d5 df 3c 71 d2 a5 3e c9 1e dc 3c
       -0.12335612 0.027323486 0.32387117 0.026870148
0001f0 c3 36 23 3f e9 f1 c9 3b f9 27 67 3e 39 4a 99 3e
       0.63755435 0.006162871 0.22573842 0.2993944
000200 08 0d 24 3d f0 d5 84 3d 48 35 fe 3c 64 8a e6 3d
       0.04005149 0.06486118 0.031031266 0.11256865
000210 92 80 62 3e dc 4b 05 3f 20 5d c6 3d bd 3a c3 3c
       0.22119358 0.5206888 0.09685731 0.02383172
000220 a6 bd 56 3e 89 60 5d 3e 9e 5b aa 3e 35 c6 0f 3e
       0.20970783 0.21618856 0.33273023 0.14040454
000230 32 57 04 be 49 01 5d bd 3d 3d b0 bd 98 76 0d 3e
       -0.12923887 -0.053956304 -0.0860543 0.13814771
000240 16 02 8f bd d0 2d 37 bd a8 ad e7 bd 17 12 98 3c
       -0.0698282 -0.044721425 -0.11312419 0.018563313
000250 ef f6 a4 bd f1 e4 0a 3e 7f f2 a5 be 3a fd 88 be
       -0.08054911 0.13563897 -0.32411572 -0.26755697
000260 d2 fb 24 be b1 87 64 bd 86 50 27 bd b3 2a ea bd
       -0.16111687 -0.055793468 -0.040848278 -0.114339255
000270 7c 1a 96 3c 06 52 8b bd 01 44 0e 3b 75 61 98 bd
       0.018323176 -0.06802754 0.0021708014 -0.074404635
000280 ac dd b5 3e 21 aa 0a bd a9 f1 bf bd 66 b2 a3 3e
       0.35520685 -0.033853654 -0.09372265 0.31972045
000290 40 67 72 3e cb 2e 7c 3e e7 22 41 3d 2f 60 d8 3d
       0.23672199 0.24627225 0.047152426 0.105652206
0002a0 8b 62 0e be 4c 00 07 bd f6 5a a5 be 4d ca f9 3d
       -0.13904779 -0.032959267 -0.3229596 0.12196789
0002b0 31 19 96 3e 2a 3d 79 bd b7 04 c8 3e a4 bc 4b 3e
       0.29316095 -0.060849346 0.39066097 0.1989618
0002c0 3c 9c d8 3e dd 20 a5 be a4 c5 82 3e 3b f9 4c be
       0.42306697 -0.32251635 0.25541413 -0.20016949
0002d0 f9 5c 3f bd 4d b8 aa 3d d7 03 4b bd 35 e4 b8 3d
       -0.046719525 0.08335934 -0.04956421 0.09027902
0002e0 d1 8b 28 3e 4d d4 ae 3e 92 ef 29 be 18 16 6f be
       0.16459586 0.34146348 -0.16595295 -0.23348272
0002f0 26 a5 98 3d 26 e7 ef 3e 7d 3e 4f bd 8f 99 aa be
       0.074533746 0.4685604 -0.050596703 -0.3332028
000300 cf 10 80 be 5f c9 5d 3e 9b f5 84 be 24 5a 3a be
       -0.25012824 0.21658848 -0.25968632 -0.18198448
000310 ab 3d 5f 3c de 79 a4 be c5 e6 dd 3e 10 6f 05 3e
       0.013625543 -0.32124227 0.43340126 0.13030648
000320 44 c6 b3 3e 79 ac 79 3d 1d 4f 32 be 66 3d 82 be
       0.35112202 0.0609555 -0.17412992 -0.25437468
000330 9f 04 ca bd 23 36 ed bd 60 25 38 3b 77 35 4f 3d
       -0.09864163 -0.115825914 0.002809845 0.050588097
000340 6d 0e d8 bb 82 91 43 3d 28 3e 63 be 41 ec 8a be
       -0.0065935166 0.04774619 -0.2219168 -0.27133372
000350 f6 d3 59 3e 4a 94 35 3d c3 3f 07 bd 37 d2 03 be
       0.21272263 0.044330873 -0.033019792 -0.1287316
000360 3f 2f e2 ba ac ca 06 be ff a6 f7 bd 2d 08 d5 bd
       -0.0017256512 -0.1316325 -0.12092399 -0.1040195
000370 26 fd d2 3d 45 a8 3f be f7 a0 ab 3e dc ee 88 3d
       0.103021905 -0.18716533 0.33521244 0.06686184
000380 bf d6 60 be 00 09 e3 bd dd 8e 57 bc 3c 7f c8 bd
       -0.21956919 -0.11085701 -0.01315662 -0.09789893
000390 c2 2f a5 bb 2f 14 0f be 99 f7 c0 bc ce 3d 21 3d
       -0.0050410936 -0.13972543 -0.023555564 0.039365582
0003a0 b0 6b 9d 3d 6a 85 67 bd 38 32 8e 3e 76 2c c6 bd
       0.076865554 -0.056523718 0.2777269 -0.09676449
0003b0 ab a3 3e be 04 67 1a 3e ab 81 8c be ca 9b ee bd
       -0.18617122 0.1507836 -0.2744268 -0.11650808
0003c0 7a d0 25 be 70 7b fe 3d 3a dd b0 3e 58 3e 63 bd
       -0.16192809 0.124258876 0.34543782 -0.055479378
0003d0 6a 04 f4 3d 46 71 5d bd 47 b9 eb 3d 09 a7 38 3e
       0.119149044 -0.054063104 0.11509948 0.18032469
0003e0 90 04 6e be 32 41 a7 bd 61 21 b4 be f9 7d 26 3e
       -0.23243928 -0.08166732 -0.35181716 0.16258992
0003f0 d5 27 2f be b7 5c 8f 3c bb 10 44 be 1c 08 8b 3e
       -0.17105038 0.017500265 -0.19147007 0.27154624

DNN-Minispect/output/MatMul f4 [1, 24]
000000 36 42 bf 3d 1f 4a c2 3d 4c 49 d5 bd 77 e8 87 3e
       0.093388006 0.09486794 -0.10414371 0.26544544
000010 48 9c cb 3e d1 d6 e4 3c c9 fd 06 3d cd 8c 86 3e
       0.3976767 0.027934464 0.032956872 0.26279297
000020 fb 23 87 3e d3 74 27 3f 63 a4 fc 3d a3 d0 65 be
       0.26394638 0.65412635 0.12336042 -0.2244287
000030 89 d6 1b bf 01 68 03 3f a9 19 3e 3e 91 64 ed be
       -0.6087423 0.5133057 0.18564476 -0.4636579
000040 f4 62 eb bd 59 c8 dc 3e 4a 00 35 be 5c e8 32 be
       -0.11493483 0.43121603 -0.17675892 -0.1747145
000050 8f 42 3d 3f 79 6b d4 bd de e5 d7 3e d4 b4 61 be
       0.73929685 -0.10372061 0.42167562 -0.22041637
